…
wn_epochs=10, patience_epochs=10, decay_rate=0.1, smoothing=0.1, mixup=0.5, cutmix=0.0, cutmix_minmax=None, mixup_prob=0.5, mixup_switch_prob=0.5, mixup_mode='batch', mixup_off_epoch=0, distributed=False)
Loading data
The directory [/home/ys/data/cifar10_dvs/frames_number_16_split_by_number] already exists.
Took 59.071051836013794
Creating data loaders
Loading data
The directory [/home/ys/data/cifar10_dvs/frames_number_16_split_by_number] already exists.
Took 58.48544001579285
Creating data loaders
dataset_train:9000, dataset_test:1000
vit_snn(
  (patch_embed): SpikingTokenizer(
    (proj_conv): Conv2d(2, 32, kernel_size=(3, 3), stride=(1, 1), padding=(1, 1), bias=False)
    (proj_bn): BatchNorm2d(32, eps=1e-05, momentum=0.1, affine=True, track_running_stats=True)
    (proj1_lif): LIFNode(
      v_threshold=1.0, v_reset=0.0, detach_reset=True, step_mode=m, backend=torch, tau=1.5
      (surrogate_function): Sigmoid(alpha=4.0, spiking=True)
    )
    (maxpool1): MaxPool2d(kernel_size=3, stride=2, padding=1, dilation=1, ceil_mode=False)
    (proj1_conv): Conv2d(32, 64, kernel_size=(3, 3), stride=(1, 1), padding=(1, 1), bias=False)
    (proj1_bn): BatchNorm2d(64, eps=1e-05, momentum=0.1, affine=True, track_running_stats=True)
    (proj2_lif): LIFNode(
      v_threshold=1.0, v_reset=0.0, detach_reset=True, step_mode=m, backend=torch, tau=1.5
      (surrogate_function): Sigmoid(alpha=4.0, spiking=True)
    )
    (maxpool2): MaxPool2d(kernel_size=3, stride=2, padding=1, dilation=1, ceil_mode=False)
    (proj2_conv): Conv2d(64, 128, kernel_size=(3, 3), stride=(1, 1), padding=(1, 1), bias=False)
    (proj2_bn): BatchNorm2d(128, eps=1e-05, momentum=0.1, affine=True, track_running_stats=True)
    (proj3_lif): LIFNode(
      v_threshold=1.0, v_reset=0.0, detach_reset=True, step_mode=m, backend=torch, tau=1.5
      (surrogate_function): Sigmoid(alpha=4.0, spiking=True)
    )
    (maxpool3): MaxPool2d(kernel_size=3, stride=2, padding=1, dilation=1, ceil_mode=False)
    (proj3_conv): Conv2d(128, 256, kernel_size=(3, 3), stride=(1, 1), padding=(1, 1), bias=False)
    (proj3_bn): BatchNorm2d(256, eps=1e-05, momentum=0.1, affine=True, track_running_stats=True)
    (proj4_lif): LIFNode(
      v_threshold=1.0, v_reset=0.0, detach_reset=True, step_mode=m, backend=torch, tau=1.5
      (surrogate_function): Sigmoid(alpha=4.0, spiking=True)
    )
    (maxpool4): MaxPool2d(kernel_size=3, stride=2, padding=1, dilation=1, ceil_mode=False)
    (proj4_conv): Conv2d(256, 256, kernel_size=(3, 3), stride=(1, 1), padding=(1, 1), bias=False)
    (proj4_bn): BatchNorm2d(256, eps=1e-05, momentum=0.1, affine=True, track_running_stats=True)
  )
  (block): ModuleList(
    (0): SpikingTransformer(
      (norm1): LayerNorm((256,), eps=1e-06, elementwise_affine=True)
      (attn): SpikingSelfAttention(
        (proj_lif): LIFNode(
          v_threshold=1.0, v_reset=0.0, detach_reset=True, step_mode=m, backend=torch, tau=1.5
          (surrogate_function): Sigmoid(alpha=4.0, spiking=True)
        )
        (q_conv): Conv1d(256, 256, kernel_size=(1,), stride=(1,), bias=False)
        (q_bn): BatchNorm1d(256, eps=1e-05, momentum=0.1, affine=True, track_running_stats=True)
        (q_lif): LIFNode(
          v_threshold=1.0, v_reset=0.0, detach_reset=True, step_mode=m, backend=torch, tau=1.5
          (surrogate_function): Sigmoid(alpha=4.0, spiking=True)
        )
        (k_conv): Conv1d(256, 256, kernel_size=(1,), stride=(1,), bias=False)
        (k_bn): BatchNorm1d(256, eps=1e-05, momentum=0.1, affine=True, track_running_stats=True)
        (k_lif): LIFNode(
          v_threshold=1.0, v_reset=0.0, detach_reset=True, step_mode=m, backend=torch, tau=1.5
          (surrogate_function): Sigmoid(alpha=4.0, spiking=True)
        )
        (v_conv): Conv1d(256, 256, kernel_size=(1,), stride=(1,), bias=False)
        (v_bn): BatchNorm1d(256, eps=1e-05, momentum=0.1, affine=True, track_running_stats=True)
        (v_lif): LIFNode(
          v_threshold=1.0, v_reset=0.0, detach_reset=True, step_mode=m, backend=torch, tau=1.5
          (surrogate_function): Sigmoid(alpha=4.0, spiking=True)
        )
        (attn_lif): LIFNode(
          v_threshold=0.5, v_reset=0.0, detach_reset=True, step_mode=m, backend=torch, tau=1.5
          (surrogate_function): Sigmoid(alpha=4.0, spiking=True)
        )
        (proj_conv): Conv1d(256, 256, kernel_size=(1,), stride=(1,))
        (proj_bn): BatchNorm1d(256, eps=1e-05, momentum=0.1, affine=True, track_running_stats=True)
      )
      (drop_path): Identity()
      (norm2): LayerNorm((256,), eps=1e-06, elementwise_affine=True)
      (mlp): MLP(
        (mlp1_lif): LIFNode(
          v_threshold=1.0, v_reset=0.0, detach_reset=True, step_mode=m, backend=torch, tau=1.5
          (surrogate_function): Sigmoid(alpha=4.0, spiking=True)
        )
        (mlp1_conv): Conv2d(256, 1024, kernel_size=(1, 1), stride=(1, 1))
        (mlp1_bn): BatchNorm2d(1024, eps=1e-05, momentum=0.1, affine=True, track_running_stats=True)
        (mlp2_lif): LIFNode(
          v_threshold=1.0, v_reset=0.0, detach_reset=True, step_mode=m, backend=torch, tau=1.5
          (surrogate_function): Sigmoid(alpha=4.0, spiking=True)
        )
        (mlp2_conv): Conv2d(1024, 256, kernel_size=(1, 1), stride=(1, 1))
        (mlp2_bn): BatchNorm2d(256, eps=1e-05, momentum=0.1, affine=True, track_running_stats=True)
      )
    )
    (1): SpikingTransformer(
      (norm1): LayerNorm((256,), eps=1e-06, elementwise_affine=True)
      (attn): SpikingSelfAttention(
        (proj_lif): LIFNode(
          v_threshold=1.0, v_reset=0.0, detach_reset=True, step_mode=m, backend=torch, tau=1.5
          (surrogate_function): Sigmoid(alpha=4.0, spiking=True)
        )
        (q_conv): Conv1d(256, 256, kernel_size=(1,), stride=(1,), bias=False)
        (q_bn): BatchNorm1d(256, eps=1e-05, momentum=0.1, affine=True, track_running_stats=True)
        (q_lif): LIFNode(
          v_threshold=1.0, v_reset=0.0, detach_reset=True, step_mode=m, backend=torch, tau=1.5
          (surrogate_function): Sigmoid(alpha=4.0, spiking=True)
        )
        (k_conv): Conv1d(256, 256, kernel_size=(1,), stride=(1,), bias=False)
        (k_bn): BatchNorm1d(256, eps=1e-05, momentum=0.1, affine=True, track_running_stats=True)
        (k_lif): LIFNode(
          v_threshold=1.0, v_reset=0.0, detach_reset=True, step_mode=m, backend=torch, tau=1.5
          (surrogate_function): Sigmoid(alpha=4.0, spiking=True)
        )
        (v_conv): Conv1d(256, 256, kernel_size=(1,), stride=(1,), bias=False)
        (v_bn): BatchNorm1d(256, eps=1e-05, momentum=0.1, affine=True, track_running_stats=True)
        (v_lif): LIFNode(
          v_threshold=1.0, v_reset=0.0, detach_reset=True, step_mode=m, backend=torch, tau=1.5
          (surrogate_function): Sigmoid(alpha=4.0, spiking=True)
        )
        (attn_lif): LIFNode(
          v_threshold=0.5, v_reset=0.0, detach_reset=True, step_mode=m, backend=torch, tau=1.5
          (surrogate_function): Sigmoid(alpha=4.0, spiking=True)
        )
        (proj_conv): Conv1d(256, 256, kernel_size=(1,), stride=(1,))
        (proj_bn): BatchNorm1d(256, eps=1e-05, momentum=0.1, affine=True, track_running_stats=True)
      )
      (drop_path): DropPath(drop_prob=0.100)
      (norm2): LayerNorm((256,), eps=1e-06, elementwise_affine=True)
      (mlp): MLP(
        (mlp1_lif): LIFNode(
          v_threshold=1.0, v_reset=0.0, detach_reset=True, step_mode=m, backend=torch, tau=1.5
          (surrogate_function): Sigmoid(alpha=4.0, spiking=True)
        )
        (mlp1_conv): Conv2d(256, 1024, kernel_size=(1, 1), stride=(1, 1))
        (mlp1_bn): BatchNorm2d(1024, eps=1e-05, momentum=0.1, affine=True, track_running_stats=True)
        (mlp2_lif): LIFNode(
          v_threshold=1.0, v_reset=0.0, detach_reset=True, step_mode=m, backend=torch, tau=1.5
          (surrogate_function): Sigmoid(alpha=4.0, spiking=True)
        )
        (mlp2_conv): Conv2d(1024, 256, kernel_size=(1, 1), stride=(1, 1))
        (mlp2_bn): BatchNorm2d(256, eps=1e-05, momentum=0.1, affine=True, track_running_stats=True)
      )
    )
  )
  (head): Linear(in_features=256, out_features=10, bias=True)
)
Creating model
number of params: 2568714
purge_step_train=0, purge_step_te=0
Start training
current time:  2024-09-04 08:26:28
Epoch: [0]  [  0/562]  eta: 0:32:14  lr: 1e-05  imgps: 5.4901674353522045  loss: 2.3189 (2.3189)  acc1: 6.2500 (6.2500)  acc5: 43.7500 (43.7500)  time: 3.4427  data: 0.5284  max mem: 6292
Epoch: [0]  [256/562]  eta: 0:01:07  lr: 1e-05  imgps: 78.03492386495114  loss: 2.1422 (2.1956)  acc1: 18.7500 (21.7412)  acc5: 75.0000 (71.4494)  time: 0.2111  data: 0.0002  max mem: 6311
…
