…
hs=10, cooldown_epochs=10, patience_epochs=10, decay_rate=0.1, smoothing=0.1, mixup=0.5, cutmix=0.0, cutmix_minmax=None, mixup_prob=0.5, mixup_switch_prob=0.5, mixup_mode='batch', mixup_off_epoch=0, distributed=False)
Loading data
The directory [/home/ys/data/cifar10_dvs/frames_number_10_split_by_number] already exists.
Took 37.56022596359253
Creating data loaders
Loading data
The directory [/home/ys/data/cifar10_dvs/frames_number_10_split_by_number] already exists.
Took 37.10451078414917
Creating data loaders
dataset_train:9000, dataset_test:1000
MSResNet(
  (conv1): SeqToANNContainer(
    (0): Conv2d(2, 16, kernel_size=(3, 3), stride=(2, 2), padding=(1, 1), bias=False)
  )
  (bn1): SeqToANNContainer(
    (0): BatchNorm2d(16, eps=1e-05, momentum=0.1, affine=True, track_running_stats=True)
  )
  (sn1): LIFNode(
    v_threshold=1.0, v_reset=0.0, detach_reset=True, step_mode=m, backend=torch, tau=1.5
    (surrogate_function): Sigmoid(alpha=4.0, spiking=True)
  )
  (maxpool): SeqToANNContainer(
    (0): MaxPool2d(kernel_size=3, stride=2, padding=1, dilation=1, ceil_mode=False)
  )
  (layer1): Sequential(
    (0): BasicBlock(
      (conv1): SeqToANNContainer(
        (0): Conv2d(16, 16, kernel_size=(3, 3), stride=(1, 1), padding=(1, 1), bias=False)
        (1): BatchNorm2d(16, eps=1e-05, momentum=0.1, affine=True, track_running_stats=True)
      )
      (sn1): LIFNode(
        v_threshold=1.0, v_reset=0.0, detach_reset=True, step_mode=m, backend=torch, tau=1.5
        (surrogate_function): Sigmoid(alpha=4.0, spiking=True)
      )
      (conv2): SeqToANNContainer(
        (0): Conv2d(16, 16, kernel_size=(3, 3), stride=(1, 1), padding=(1, 1), bias=False)
        (1): BatchNorm2d(16, eps=1e-05, momentum=0.1, affine=True, track_running_stats=True)
      )
      (sn2): LIFNode(
        v_threshold=1.0, v_reset=0.0, detach_reset=True, step_mode=m, backend=torch, tau=1.5
        (surrogate_function): Sigmoid(alpha=4.0, spiking=True)
      )
    )
    (1): BasicBlock(
      (conv1): SeqToANNContainer(
        (0): Conv2d(16, 16, kernel_size=(3, 3), stride=(1, 1), padding=(1, 1), bias=False)
        (1): BatchNorm2d(16, eps=1e-05, momentum=0.1, affine=True, track_running_stats=True)
      )
      (sn1): LIFNode(
        v_threshold=1.0, v_reset=0.0, detach_reset=True, step_mode=m, backend=torch, tau=1.5
        (surrogate_function): Sigmoid(alpha=4.0, spiking=True)
      )
      (conv2): SeqToANNContainer(
        (0): Conv2d(16, 16, kernel_size=(3, 3), stride=(1, 1), padding=(1, 1), bias=False)
        (1): BatchNorm2d(16, eps=1e-05, momentum=0.1, affine=True, track_running_stats=True)
      )
      (sn2): LIFNode(
        v_threshold=1.0, v_reset=0.0, detach_reset=True, step_mode=m, backend=torch, tau=1.5
        (surrogate_function): Sigmoid(alpha=4.0, spiking=True)
      )
    )
    (2): BasicBlock(
      (conv1): SeqToANNContainer(
        (0): Conv2d(16, 16, kernel_size=(3, 3), stride=(1, 1), padding=(1, 1), bias=False)
        (1): BatchNorm2d(16, eps=1e-05, momentum=0.1, affine=True, track_running_stats=True)
      )
      (sn1): LIFNode(
        v_threshold=1.0, v_reset=0.0, detach_reset=True, step_mode=m, backend=torch, tau=1.5
        (surrogate_function): Sigmoid(alpha=4.0, spiking=True)
      )
      (conv2): SeqToANNContainer(
        (0): Conv2d(16, 16, kernel_size=(3, 3), stride=(1, 1), padding=(1, 1), bias=False)
        (1): BatchNorm2d(16, eps=1e-05, momentum=0.1, affine=True, track_running_stats=True)
      )
      (sn2): LIFNode(
        v_threshold=1.0, v_reset=0.0, detach_reset=True, step_mode=m, backend=torch, tau=1.5
        (surrogate_function): Sigmoid(alpha=4.0, spiking=True)
      )
    )
  )
  (layer2): Sequential(
    (0): BasicBlock(
      (conv1): SeqToANNContainer(
        (0): Conv2d(16, 32, kernel_size=(3, 3), stride=(2, 2), padding=(1, 1), bias=False)
        (1): BatchNorm2d(32, eps=1e-05, momentum=0.1, affine=True, track_running_stats=True)
      )
      (sn1): LIFNode(
        v_threshold=1.0, v_reset=0.0, detach_reset=True, step_mode=m, backend=torch, tau=1.5
        (surrogate_function): Sigmoid(alpha=4.0, spiking=True)
      )
      (conv2): SeqToANNContainer(
        (0): Conv2d(32, 32, kernel_size=(3, 3), stride=(1, 1), padding=(1, 1), bias=False)
        (1): BatchNorm2d(32, eps=1e-05, momentum=0.1, affine=True, track_running_stats=True)
      )
      (downsample): Sequential(
        (0): LIFNode(
          v_threshold=1.0, v_reset=0.0, detach_reset=True, step_mode=m, backend=torch, tau=1.5
          (surrogate_function): Sigmoid(alpha=4.0, spiking=True)
        )
        (1): SeqToANNContainer(
          (0): Conv2d(16, 32, kernel_size=(1, 1), stride=(2, 2), bias=False)
          (1): BatchNorm2d(32, eps=1e-05, momentum=0.1, affine=True, track_running_stats=True)
        )
      )
      (sn2): LIFNode(
        v_threshold=1.0, v_reset=0.0, detach_reset=True, step_mode=m, backend=torch, tau=1.5
        (surrogate_function): Sigmoid(alpha=4.0, spiking=True)
      )
    )
    (1): BasicBlock(
      (conv1): SeqToANNContainer(
        (0): Conv2d(32, 32, kernel_size=(3, 3), stride=(1, 1), padding=(1, 1), bias=False)
        (1): BatchNorm2d(32, eps=1e-05, momentum=0.1, affine=True, track_running_stats=True)
      )
      (sn1): LIFNode(
        v_threshold=1.0, v_reset=0.0, detach_reset=True, step_mode=m, backend=torch, tau=1.5
        (surrogate_function): Sigmoid(alpha=4.0, spiking=True)
      )
      (conv2): SeqToANNContainer(
        (0): Conv2d(32, 32, kernel_size=(3, 3), stride=(1, 1), padding=(1, 1), bias=False)
        (1): BatchNorm2d(32, eps=1e-05, momentum=0.1, affine=True, track_running_stats=True)
      )
      (sn2): LIFNode(
        v_threshold=1.0, v_reset=0.0, detach_reset=True, step_mode=m, backend=torch, tau=1.5
        (surrogate_function): Sigmoid(alpha=4.0, spiking=True)
      )
    )
    (2): BasicBlock(
      (conv1): SeqToANNContainer(
        (0): Conv2d(32, 32, kernel_size=(3, 3), stride=(1, 1), padding=(1, 1), bias=False)
        (1): BatchNorm2d(32, eps=1e-05, momentum=0.1, affine=True, track_running_stats=True)
      )
      (sn1): LIFNode(
        v_threshold=1.0, v_reset=0.0, detach_reset=True, step_mode=m, backend=torch, tau=1.5
        (surrogate_function): Sigmoid(alpha=4.0, spiking=True)
      )
      (conv2): SeqToANNContainer(
        (0): Conv2d(32, 32, kernel_size=(3, 3), stride=(1, 1), padding=(1, 1), bias=False)
        (1): BatchNorm2d(32, eps=1e-05, momentum=0.1, affine=True, track_running_stats=True)
      )
      (sn2): LIFNode(
        v_threshold=1.0, v_reset=0.0, detach_reset=True, step_mode=m, backend=torch, tau=1.5
        (surrogate_function): Sigmoid(alpha=4.0, spiking=True)
      )
    )
  )
  (layer3): Sequential(
    (0): BasicBlock(
      (conv1): SeqToANNContainer(
        (0): Conv2d(32, 64, kernel_size=(3, 3), stride=(2, 2), padding=(1, 1), bias=False)
        (1): BatchNorm2d(64, eps=1e-05, momentum=0.1, affine=True, track_running_stats=True)
      )
      (sn1): LIFNode(
        v_threshold=1.0, v_reset=0.0, detach_reset=True, step_mode=m, backend=torch, tau=1.5
        (surrogate_function): Sigmoid(alpha=4.0, spiking=True)
      )
      (conv2): SeqToANNContainer(
        (0): Conv2d(64, 64, kernel_size=(3, 3), stride=(1, 1), padding=(1, 1), bias=False)
        (1): BatchNorm2d(64, eps=1e-05, momentum=0.1, affine=True, track_running_stats=True)
      )
      (downsample): Sequential(
        (0): LIFNode(
          v_threshold=1.0, v_reset=0.0, detach_reset=True, step_mode=m, backend=torch, tau=1.5
          (surrogate_function): Sigmoid(alpha=4.0, spiking=True)
        )
        (1): SeqToANNContainer(
          (0): Conv2d(32, 64, kernel_size=(1, 1), stride=(2, 2), bias=False)
          (1): BatchNorm2d(64, eps=1e-05, momentum=0.1, affine=True, track_running_stats=True)
        )
      )
      (sn2): LIFNode(
        v_threshold=1.0, v_reset=0.0, detach_reset=True, step_mode=m, backend=torch, tau=1.5
        (surrogate_function): Sigmoid(alpha=4.0, spiking=True)
      )
    )
    (1): BasicBlock(
      (conv1): SeqToANNContainer(
        (0): Conv2d(64, 64, kernel_size=(3, 3), stride=(1, 1), padding=(1, 1), bias=False)
        (1): BatchNorm2d(64, eps=1e-05, momentum=0.1, affine=True, track_running_stats=True)
      )
      (sn1): LIFNode(
        v_threshold=1.0, v_reset=0.0, detach_reset=True, step_mode=m, backend=torch, tau=1.5
        (surrogate_function): Sigmoid(alpha=4.0, spiking=True)
      )
      (conv2): SeqToANNContainer(
        (0): Conv2d(64, 64, kernel_size=(3, 3), stride=(1, 1), padding=(1, 1), bias=False)
        (1): BatchNorm2d(64, eps=1e-05, momentum=0.1, affine=True, track_running_stats=True)
      )
      (sn2): LIFNode(
        v_threshold=1.0, v_reset=0.0, detach_reset=True, step_mode=m, backend=torch, tau=1.5
        (surrogate_function): Sigmoid(alpha=4.0, spiking=True)
      )
    )
    (2): BasicBlock(
      (conv1): SeqToANNContainer(
        (0): Conv2d(64, 64, kernel_size=(3, 3), stride=(1, 1), padding=(1, 1), bias=False)
        (1): BatchNorm2d(64, eps=1e-05, momentum=0.1, affine=True, track_running_stats=True)
      )
      (sn1): LIFNode(
        v_threshold=1.0, v_reset=0.0, detach_reset=True, step_mode=m, backend=torch, tau=1.5
        (surrogate_function): Sigmoid(alpha=4.0, spiking=True)
      )
      (conv2): SeqToANNContainer(
        (0): Conv2d(64, 64, kernel_size=(3, 3), stride=(1, 1), padding=(1, 1), bias=False)
        (1): BatchNorm2d(64, eps=1e-05, momentum=0.1, affine=True, track_running_stats=True)
      )
      (sn2): LIFNode(
        v_threshold=1.0, v_reset=0.0, detach_reset=True, step_mode=m, backend=torch, tau=1.5
        (surrogate_function): Sigmoid(alpha=4.0, spiking=True)
      )
    )
  )
  (avgpool): SeqToANNContainer(
    (0): AdaptiveAvgPool2d(output_size=(1, 1))
  )
  (fc): Linear(in_features=64, out_features=10, bias=True)
)/home/ys/.conda/envs/snn/lib/python3.10/site-packages/torch/nn/_reduction.py:42: UserWarning: size_average and reduce args will be deprecated, please use reduction='mean' instead.
  warnings.warn(warning.format(ret))

Creating model
number of params: 272330
purge_step_train=0, purge_step_te=0
Start training
current time:  2024-09-03 14:37:35
Epoch: [0]  [  0/562]  eta: 0:24:38  lr: 1e-05  imgps: 7.19589551438603  loss: 2.3178 (2.3178)  acc1: 0.0000 (0.0000)  acc5: 50.0000 (50.0000)  time: 2.6307  data: 0.4072  max mem: 678
…
